hi_KS.tflite (tflite, 206748 bytes, 9 tensors)

Const_1 f4 [32]
-0.007783127 -0.0023135156 0.015026304 0.023083663 -0.010109045 0.018092701 0.018882245 -0.023167755
-0.011646442 0.009981644 0.018874265 0.016142553 -0.0024795444 -0.008206237 -0.012442805 -0.009677487
-0.0009883051 0.00034980514 0.024490668 0.019673716 0.0029438576 0.017742781 0.017684307 0.02054757
-0.016776793 -0.020789968 0.010331383 0.020153835 0.0061165066 0.027501512 0.015008823 0.01577279
00000000: 9a09 ffbb 5a9e 17bb e330 763c f319 bd3c
00000010: 68a0 25bc 2537 943c f0ae 9a3c 4eca bdbc
00000020: b8d0 3ebc 0d8a 233c 349e 9a3c 633d 843c
00000030: da7f 22bb 7473 06bc e8dc 4bbc 538e 1ebc
00000040: 048a 81ba 0d66 b739 a7a0 c83c c62a a13c
00000050: bced 403b 4f59 913c aede 903c 6153 a83c
00000060: 7c6f 89bc b94f aabc f644 293c a819 a53c
00000070: fa6c c83b da4a e13c 91e7 753c f035 813c

Const_2 f4 [32]
0.955263 0.9981499 0.99537086 0.9930748 1.0002387 0.95793635 0.995909 0.9512897
1.0190384 0.9894473 0.9838017 0.98647803 1.0074605 0.97313887 1.0355221 1.0265938
1.0068601 1.0018842 1.0017648 0.98743623 0.9978363 1.0009769 1.0052128 0.95434755
1.0277371 0.9650383 0.99693966 1.0014104 1.0089911 0.962445 0.99519974 0.99827904
00000000: 1e8c 743f c086 7f3f a0d0 7e3f 263a 7e3f
00000010: d207 803f 513b 753f e4f3 7e3f b987 733f
00000020: da6f 823f 6b4c 7d3f 6eda 7b3f d389 7c3f
00000030: 77f4 803f a11f 793f fd8b 843f 6d67 833f
00000040: cbe0 803f be3d 803f d439 803f 9fc8 7c3f
00000050: 3372 7f3f 0320 803f d0aa 803f 1f50 743f
00000060: e48c 833f c00c 773f 7037 7f3f 372e 803f
00000070: 9f26 813f cc62 763f 69c5 7e3f 378f 7f3f

Const_3 f4 [32]
-0.025338193 0.02569527 0.0010377942 -0.014104819 0.0059566125 0.008000431 -0.012426112 -0.05667695
0.008626106 -0.01798726 -0.018618895 -0.0030631528 0.007082256 -0.014705898 0.019187896 0.0011667797
-0.01031174 0.0015555975 0.007372166 -0.019212265 0.0004377744 -0.008642962 0.0052457466 -0.005484027
0.0346438 0.018018756 -0.012323147 0.007670672 0.0024915969 -0.004240442 -0.016382005 0.0001635966
00000000: 0b92 cfbc e37e d23c 9806 883a e617 67bc
00000010: b02f c33b 3d14 033c e496 4bbc 1726 68bd
00000020: 8354 0d3c 055a 93bc a786 98bc 2dbf 48bb
00000030: 4512 e83b 02f1 70bc ef2f 9d3c a1ee 983a
00000040: 93f2 28bc 31e5 cb3a 3692 f13b 0a63 9dbc
00000050: 1685 e539 369b 0dbc 83e4 ab3b 5ab3 b3bb
00000060: a8e6 0d3d 129c 933c 06e7 49bc 435a fb3b
00000070: 0f4a 233b 68f3 8abb 8e33 86bc 218b 2b39

Const_5 f4 [32]
-0.041090462 0.027834192 -0.09828622 -0.16598885 -0.12164701 -0.05297917 0.054535635 -0.022920763
-0.0033363695 0.08149854 -0.14285612 -0.12038794 0.09108051 0.093105555 -0.037225258 0.029927341
-0.039730184 -0.117652476 0.069528304 0.15334105 -0.13699463 -0.034215853 -0.007993862 0.02048282
-0.017030708 0.014861816 0.10922985 0.04752603 -0.12001638 -0.14664796 -0.14045388 -0.0330331
00000000: 794e 28bd 8804 e43c 494a c9bd fbf8 29be
00000010: 1122 f9bd b000 59bd c260 5f3d 53c4 bbbc
00000020: fea6 5abb b5e8 a63d e048 12be f48d f6bd
00000030: 6b88 ba3d 20ae be3d 8379 18bd 2f2a f53c
00000040: 1ebc 22bd c8f3 f0bd db64 8e3d 7005 1d3e
00000050: 5248 0cbe ec25 0cbd b0f8 02bc 96cb a73c
00000060: fc83 8bbc f97e 733c e6b3 df3d a8aa 423d
00000070: 26cb f5bd e22a 16be 24d3 0fbe b74d 07bd

Const_6 f4 [32]
1.0287986 1.1201974 1.0959249 1.2841496 0.9982293 1.0036933 1.0548459 1.1954279
1.0021958 0.99624395 1.1086779 0.9945925 1.2375883 1.0701252 1.0213937 1.008742
1.2217196 1.116367 1.0345671 1.2584791 1.0486678 1.2142458 1.0154089 1.2517328
1.0145729 0.9992118 1.0325643 1.2069334 1.0015651 1.2025688 0.99837136 1.3855835
00000000: acaf 833f a162 8f3f 4447 8c3f 045f a43f
00000010: f58b 7f3f 0679 803f 3105 873f c803 993f
00000020: f447 803f d809 7f3f 28e9 8d3f 9d9d 7e3f
00000030: 4b69 9e3f ddf9 883f 07bd 823f 751e 813f
00000040: 4f61 9c3f 1de5 8e3f b26c 843f d815 a13f
00000050: bf3a 863f 686c 9b3f ebf8 813f c838 a03f
00000060: 86dd 813f 58cc 7f3f 112b 843f cb7c 9a3f
00000070: 4933 803f c6ed 993f 4495 7f3f cd5a b13f

Const_7 f4 [32]
0.043396924 0.060812164 0.08068782 0.25770354 0.0060541118 0.0073156822 0.040482767 0.21337856
0.0036940402 -0.0130233355 0.057434767 -0.020760715 0.22781156 0.066209756 0.037057925 0.017216586
0.21977997 0.09703921 0.017119844 0.2385577 0.032285262 0.21684036 0.012887374 0.23189345
0.028612183 -0.00842209 0.03594999 0.22010495 0.0043947254 0.21718921 -0.0040187957 0.289411
00000000: f9c0 313d 2d16 793d a83f a53d b8f1 833e
00000010: 9261 c63b 64b8 ef3b 42d1 253d e97f 5a3e
00000020: b617 723b d45f 55bc b840 6b3d 6012 aabc
00000030: 6f47 693e fb98 873d 0dca 173d cc09 8d3c
00000040: 000e 613e 7ebc c63d ea3e 8c3c 7848 743e
00000050: 8d3d 043d 660b 5e3e 9025 533c 7a75 6d3e
00000060: 1964 ea3c cefc 09bc 4c40 133d 3163 613e
00000070: a101 903b d966 5e3e 1ab0 83bb ae2d 943e

MatMul f4 [32, 1536]
-0.017959764 -0.002427511 -0.012964514 -0.026920596 -0.008083625 0.0066358307 -0.017375011 -0.024355022
-0.016748112 0.0076942146 0.008326542 0.027061792 -0.008158787 0.027414817 0.02134858 -0.028653935
-0.027315818 -0.009783272 0.010424572 -0.02619376 -0.027487213 -0.018688545 -0.012190711 -0.007516344
0.01154748 0.010226751 0.0005847469 0.007366566 0.01816956 0.01975739 -0.01312596 0.022633228
-0.018762074 -0.008589446 0.015320103 -0.021165365 -0.019426849 0.00063663814 0.008646224 0.00040507643
-0.008571797 0.011252045 -0.027607793 0.003600174 -0.017646218 -0.030603012 -0.022733355 -0.04952113
0.003491458 0.028522165 -0.0048770374 0.00061123207 -0.030960506 0.03907878 0.018689577 -0.0055557643
0.021858176 0.0058096196 0.02519329 -0.034224514 -0.0041276403 -0.0074781803 -0.0026120357 -0.042133603
0.0066798734 -0.0070688636 0.035941374 0.021465437 0.005550785 0.0015386452 0.0030655947 0.011565028
0.030300817 0.025796568 0.013730258 -0.0022275266 0.04493864 0.020266885 0.015351051 -0.005930148
-0.005143992 0.020647012 -0.0014827932 0.02536211 0.017500477 -0.01776658 -0.0013159028 -0.021919334
-0.006637237 -0.0075243358 0.025158003 0.018042255 0.013681369 0.013883602 0.02418173 0.011674465
0.0370235 0.020580685 -0.0035139762 0.0038282794 -0.010276101 0.005379056 -0.007342678 -0.03375301
0.017343543 0.01628446 0.015543639 -0.04130626 0.0001644747 0.029060924 -0.009775539 0.026693007
-0.01748691 -0.010880563 -0.0014132935 0.018758973 -0.03500506 0.0070782043 0.014562071 -0.0043662954
-0.0030324464 0.0064491103 -0.02056147 -0.043430563 -0.015787069 -0.021610603 0.007426849 -0.01926048
-0.012488609 -0.03321298 -4.1823252e-05 -0.0330415 -0.022961501 0.01245464 -0.012919111 0.023708168
0.008188622 0.005093999 -0.021532793 0.013618772 -0.00456424 0.013909824 -0.00281889 -0.049402766
-0.024678435 0.050162457 -0.005416168 -0.0038614362 -0.029627534 0.0463207 4.0624906e-05 -0.021340717
0.024488915 -0.017629318 0.023129355 -0.0020804715 -0.0150039485 -0.02152359 0.01879924 0.002426927
-0.013607202 0.0041981866 0.013749099 0.032669287 -0.0032645094 -0.0045801084 0.03799145 0.0170665
0.017574135 -0.00026082137 -0.0038911283 0.028382892 0.012844278 0.010561242 0.013435119 0.025994673
-0.027344352 -0.007087361 0.018483398 -0.0029084133 0.017077655 -0.008634758 0.0055664284 0.007315919
-0.008532351 -0.0023566007 0.02133145 0.0033545443 0.021507883 0.005172908 -0.000213783 -0.015622074
-0.0041484954 -0.008914688 -0.0361013 0.020636596 -0.002471919 -0.01979644 -0.002226196 -0.030590877
-0.031092402 0.015249393 0.013102933 -0.0012342107 -0.010612098 -0.03419052 -0.013500248 -0.005302539
-0.001228971 0.031478655 -0.022134576 0.01769126 -0.01817708 0.030444803 0.00094890886 -0.032111943
-0.0008002721 0.028421607 -0.01518621 -0.009719762 -0.029228099 0.012870917 0.01344409 -0.021623272
-0.001462642 -0.034214314 0.0008870057 -0.021482088 -0.024364684 0.0065027145 -4.7237576e-05 -0.018514605
-0.014528386 -0.00022699402 0.010246391 0.00673537 -0.034210153 0.008422595 0.01833014 -0.040773086
0.015420486 0.003049572 0.006837535 1.9989045e-06 -0.028201038 -0.0069653154 -0.0170935 0.015135789
-0.013357301 0.0017922478 -0.023699857 -0.006279437 0.031663764 -0.0014364953 0.041150637 0.012193519
00000000: 5b20 93bc e016 1fbb 1d69 54bc 9588 dcbc
00000010: 2e71 04bc 6271 d93b 0a56 8ebc 2f84 c7bc
00000020: 5633 89bc c01f fc3b 0c6c 083c b1b0 dd3c
00000030: 6fac 05bc 0a95 e03c 38e3 ae3c a8bb eabc
00000040: 6cc5 dfbc 044a 20bc d3cb 2a3c 4c94 d6bc
00000050: dd2c e1bc b818 99bc 8cbb 47bc aa4b f6bb
00000060: a431 3d3c 1a8e 273c b349 193a 3c63 f13b
00000070: 54d8 943c 40da a13c 440e 57bc 5269 b93c
00000080: ecb2 99bc bfba 0cbc 2b01 7b3c fd62 adbc
00000090: 0e25 9fbc 10e4 263a e4a8 0d3c 7060 d439
000000a0: b970 0cbc 7f5a 383c bd29 e2bc e6f0 6b3b
000000b0: cd8e 90bc 2bb3 fabc 4d3b babc abd6 4abd
000000c0: f2d0 643b 51a7 e93c 8ecf 9fbb 173b 203a
000000d0: e3a0 fdbc 1211 203d e21a 993c 210d b6bb
000000e0: eb0f b33c 9f5e be3b 2962 ce3c 012f 0cbd
000000f0: 2841 87bb 860b f5bb b02e 2bbb 4994 2cbd
00000100: d7e2 da3b eda1 e7bb 4337 133d 49d8 af3c
00000110: 5ce3 b53b 5eac c93a 25e8 483b 3e7b 3d3c
00000120: 6b39 f83c 5353 d33c e0f4 603c b2fb 11bb
00000130: 9411 383d bd06 a63c fa82 7b3c b051 c2bb
00000140: ef8e a8bb ec23 a93c 495a c2ba 33c4 cf3c
00000150: 295d 8f3c 388b 91bc 5f7a acba 2d90 b3bc
00000160: 2e7d d9bb b48e f6bb 2818 ce3c 5acd 933c
00000170: d227 603c 0c78 633c c318 c63c 4146 3f3c
00000180: f4a5 173d d398 a83c bd4a 66bb dfe3 7a3b
00000190: 175d 28bc cb42 b03b d99a f0bb 9940 0abd
000001a0: 0c14 8e3c fd66 853c bfaa 7e3c c130 29bd
000001b0: d776 2c39 2d11 ee3c 9529 20bc 4bab da3c
000001c0: b540 8fbc 6444 32bc 433e b9ba 6bac 993c
000001d0: 7761 0fbd 48f0 e73b c195 6e3c 2413 8fbb
000001e0: 02bc 46bb 0f53 d33b 8770 a8bc 3fe4 31bd
000001f0: e253 81bc b808 b1bc ed5c f33b 27c8 9dbc
00000200: 069d 4cbc 550a 08bd 606b 2fb8 8656 07bd
00000210: c219 bcbc 8c0e 4c3c aeaa 53bc a237 c23c
00000220: 9229 063c 90eb a63b 8a65 b0bc 4521 5f3c
00000230: 9f8f 95bb 08e6 633c 20bd 38bb 8e5a 4abd
00000240: 6e2a cabc 2677 4d3d 1c7a b1bb 2610 7dbb
00000250: 71b5 f2bc c6ba 3d3d a964 2a38 bad2 aebc
00000260: fa9c c83c 5c6b 90bc c679 bd3c 8558 08bb
00000270: 1fd3 75bc 3d52 b0bc dd00 9a3c 140d 1f3b
00000280: bef0 5ebc f190 893b e743 613c 3bd0 053d
00000290: 61f1 55bb bc14 96bb ec9c 1b3d 0bcf 8b3c
000002a0: a2f7 8f3c dabe 88b9 4d02 7fbb 3d83 e83c
000002b0: ce70 523c 0f09 2d3c f91e 5c3c c8f2 d43c
000002c0: 4301 e0bc 183d e8bb 7f6a 973c 149b 3ebb
000002d0: 70e6 8b3c cd78 0dbc 9666 b63b 60ba ef3b
000002e0: 46cb 0bbc 3371 1abb 4bbf ae3c ead7 5b3b
000002f0: 4d31 b03c 7f81 a93b f02a 60b9 baf3 7fbc
00000300: 1af0 87bb e90e 12bc f5de 13bd 140e a93c
00000310: ebff 21bb 252c a2bc 5fe5 11bb b899 fabc
00000320: 7eb5 febc 97d8 793c afad 563c 3dc5 a1ba
00000330: 5dde 2dbc 5c0b 0cbd 2530 5dbc ecc0 adbb
00000340: 6d15 a1ba c3ef 003d 9253 b5bc 43ed 903c
00000350: 1ae8 94bc 6167 f93c 32c0 783a d087 03bd
00000360: 5ac9 51ba 6ed4 e83c 95cf 78bc a33f 1fbc
00000370: c46f efbc 8ae0 523c 9a44 5c3c 4a23 b1bc
00000380: 1fb6 bfba 4f24 0cbd f285 683a 34fb afbc
00000390: 7298 c7bc b914 d53b f620 46b8 f1ab 97bc
000003a0: 7808 6ebc 3e05 6eb9 7be0 273c 61b4 dc3b
000003b0: f21f 0cbd edfe 093c 1729 963c ae01 27bd
000003c0: 35a6 7c3c 54db 473b 670d e03b eb24 0636
000003d0: dd05 e7bc 4d3d e4bb ab07 8cbc 1afc 773c
000003e0: 95d8 5abc dbe9 ea3a 3426 c2bc bcc3 cdbb
000003f0: ddb1 013d c948 bcba 928d 283d 53c7 473c

MatMul_1 f4 [32, 32]
0.10990376 -0.14759345 0.05591051 -0.0786207 -0.06942291 -0.099512585 -0.07719473 -0.13673541
0.016331486 0.12404727 -0.15514594 0.03464823 0.058835566 0.029240007 0.06431124 0.0019989656
-0.034446362 -0.06673889 -0.014280827 -0.035181496 0.2019281 0.1657441 0.07134513 -0.11598233
-0.13434656 0.09413861 -0.022247663 -0.01826585 -0.13535354 -0.10237082 0.017051715 0.07233811
-0.14380197 0.19891709 -0.13519587 0.16264646 -0.04094028 -0.1334078 -0.04237257 -0.12423593
-0.052698545 -0.11505328 -0.04837565 0.06911136 -0.029346418 -0.14944252 -0.124907635 0.05987091
0.16784331 -0.040823877 -0.018592032 0.037141122 0.07896387 0.1613467 0.11425859 0.07059662
0.22315052 0.013542675 -0.13288946 -0.0028930355 -0.024419848 -0.073623456 0.16979013 -0.03837945
0.08675248 0.04588682 0.09504482 -0.03130519 -0.022598002 0.045845278 -0.020460995 0.13802686
-0.12911105 0.020057235 -0.12752718 -0.08626013 0.11137985 -0.1432241 -0.030452548 -0.055413827
0.07276396 0.060521185 -0.051290024 -0.1006863 0.0053202338 0.014603866 -0.01594977 0.034316536
0.12754646 -0.04601618 0.08480508 -0.097700484 0.15063092 0.01692425 0.093229756 -0.0062664966
-0.046433114 -0.16319486 0.13496128 0.03332816 0.071813405 0.053196058 0.08674326 -0.056250926
0.13659717 -0.03801428 -0.029618477 0.14064758 -0.15465114 0.048322394 -0.013277796 -0.080442406
0.026309934 -0.044491135 0.15414086 -0.15418017 0.086467914 -0.08342386 0.10078764 -0.10294948
-0.13334942 0.09974893 -0.17183402 0.03139023 0.028852006 -0.006563491 -0.12600143 0.103502005
0.10859138 0.042849172 0.16497113 -0.0071519515 -0.13854307 -0.13265139 -0.15807827 0.02374757
-0.10220917 -0.11871303 -0.16235317 -0.115919754 -0.14685863 -0.015621269 0.109410726 -0.10225694
0.019491332 -0.12578185 -0.13297576 -0.16510247 -0.056121215 -0.11714915 0.115549825 -0.06635536
0.07718975 0.011203068 -0.111035176 0.13589472 0.00901796 0.112056024 0.05359234 0.09607948
-0.054228343 -0.10638879 -0.084948 0.15594622 -0.08464573 -0.048526887 0.07233527 0.04344331
0.017872287 0.07048379 0.17273775 0.11937741 -0.05926419 -0.041750304 -0.01796739 0.07252752
-0.05187823 -0.12572576 -0.14090264 -0.1355283 0.17958705 -0.02558824 -0.07892145 0.17306581
0.09469599 -0.088220075 0.10214616 -0.046384938 0.13455956 -0.08940326 0.066954546 0.03359713
0.108479105 0.14752191 0.12166717 -0.13356358 -0.050931323 0.014277217 -0.11471693 0.16172655
-0.078667566 0.07713353 0.121405475 0.054355375 0.071584664 0.12592061 -0.11916888 0.040906597
0.06416614 0.16779815 0.058300372 -0.14978828 0.031408235 0.11175919 0.073664755 -0.013640154
0.10559065 0.047719017 0.072234675 -0.06349816 -0.09408262 0.030242056 0.042363875 -0.12808149
0.1448809 -0.0162704 -0.064235 -0.13524213 0.041354142 0.026230346 -0.15723643 -0.032849923
0.004123086 -0.1215412 -0.10706199 0.029146798 -0.14405584 -0.09356357 -0.12197609 -0.039767314
-0.062905766 0.08220878 0.0820174 -0.024220392 -0.03383464 -0.07018712 -0.033557184 0.14773527
0.07162333 0.052505195 -0.045575652 0.10276192 0.14615585 0.04104431 0.052180726 0.14788538
00000000: 3915 e13d bd22 17be 6b02 653d e403 a1bd
00000010: 992d 8ebd 41cd cbbd 4518 9ebd 5e04 0cbe
00000020: 9cc9 853c 7f0c fe3d 94de 1ebe 4deb 0d3d
00000030: 90fd 703d bd88 ef3c 9db5 833d 1401 033b
00000040: a117 0dbd 66ae 88bd 21fa 69bc 791a 10bd
00000050: 3dc6 4e3e d2b8 293e 651d 923d 2588 edbd
00000060: 2592 09be becb c03d bb40 b6bc 44a2 95bc
00000070: 1e9a 0abe cba7 d1bd 0ab0 8b3c 0126 943d
00000080: d340 13be ecb0 4b3e c970 0abe cb8c 263e
00000090: ffb0 27bd 0e9c 08be dc8e 2dbd 686f febd
000000a0: 6eda 57bd 0ea1 ebbd 8c25 46bd 428a 8d3d
000000b0: e667 f0bc 7607 19be 93cf ffbd 333b 753d
000000c0: 1edf 2b3e f036 27bd 514e 98bc 4a21 183d
000000d0: cfb7 a13d 1238 253e 6800 ea3d f694 903d
000000e0: 9281 643e 19e2 5d3c 2d14 08be 1599 3dbb
000000f0: 220c c8bc e5c7 96bd 77dd 2d3e c533 1dbd
00000100: 49ab b13d d1f3 3b3d dca6 c23d df39 00bd
00000110: 721f b9bc 42c8 3b3d d19d a7bc ea56 0d3e
00000120: b035 04be 124f a43c 7c96 02be 27a9 b0bd
00000130: 1e1b e43d 57a9 12be 9f77 f9bc 9cf9 62bd
00000140: 4505 953d 10e5 773d 7d15 52bd 9e34 cebd
00000150: 5b55 ae3b 0e45 6f3c 18a9 82bc 7f8f 0c3d
00000160: 8a9b 023e 767b 3cbd 49ae ad3d 3117 c8bd
00000170: fe3e 1a3e baa4 8a3c 3eef be3d 2f57 cdbb
00000180: a630 3ebd 8e1c 27be 4a33 0a3e 1c83 083d
00000190: e812 933d 1ce4 593d 73a6 b13d 5f67 66bd
000001a0: 21e0 0b3e ddb4 1bbd 73a2 f2bc eb05 103e
000001b0: de5c 1ebe b4ed 453d 1d8b 59bc fdbe a4bd
000001c0: ee87 d73c 563c 36bd 1ad7 1d3e 68e1 1dbe
000001d0: 1716 b13d 21da aabd c069 ce3d 2dd7 d2bd
000001e0: c08c 08be 2b49 cc3d 42f5 2fbe 0b93 003d
000001f0: 0b5b ec3c 8e12 d7bb 8506 01be dcf8 d33d
00000200: 2865 de3d 9d82 2f3d 31ee 283e eb5a eabb
00000210: 3cde 0dbe c4d5 07be 45df 21be 448a c23c
00000220: 0b53 d1bd d11f f3bd e93f 26be 5667 edbd
00000230: 1c62 16be 5af0 7fbc bb12 e03d 166c d1bd
00000240: 49ac 9f3c f5cc 00be cc2a 08be 9f10 29be
00000250: 5cdf 65bd e5eb efbd 63a5 ec3d 52e5 87bd
00000260: a915 9e3d 138d 373c 6966 e3bd fc27 0b3e
00000270: 11c0 133c a17d e53d a483 5b3d 52c5 c43d
00000280: 8a1e 5ebd 5ee2 d9bd 38f9 adbd 5eb0 1f3e
00000290: be5a adbd 21c4 46bd 8424 943d 9df1 313d
000002a0: e768 923c ce59 903d 2ae2 303e 257c f43d
000002b0: 02bf 72bd 5e02 2bbd 5930 93bc 4f89 943d
000002c0: 447e 54bd 41be 00be c848 10be eec7 0abe
000002d0: abe5 373e 6e9e d1bc 92a1 a1bd 2a38 313e
000002e0: f9ef c13d baac b4bd 0232 d13d 22fe 3dbd
000002f0: fbc9 093e 0e19 b7bd 771f 893d 259d 093d
00000300: 4b2a de3d fc0f 173e a32c f93d e4c4 08be
00000310: 5d9d 50bd fdea 693c b6f0 eabd a59b 253e
00000320: 761c a1bd 2ff8 9d3d 6fa3 f83d bea3 5e3d
00000330: fb9a 923d 55f1 003e d00e f4bd ad8d 273d
00000340: 8a69 833d 47d3 2b3e 5fcc 6e3d 1962 19be
00000350: eca5 003d 01e2 e43d 8cdd 963d f47a 5fbc
00000360: e93f d83d 0475 433d c6ef 933d 530b 82bd
00000370: 64ae c0bd 30be f73c be85 2d3d cb27 03be
00000380: a95b 143e 8049 85bc a48d 83bd ea7c 0abe
00000390: f662 293d 06e1 d63c 9602 21be a48d 06bd
000003a0: f41a 873b 98ea f8bd 5143 dbbd 44c5 ee3c
000003b0: 6083 13be 429e bfbd 9ace f9bd 0de3 22bd
000003c0: bdd4 80bd 145d a83d bdf8 a73d d869 c6bc
000003d0: 3196 0abd 44be 8fbd 4273 09bd ea47 173e
000003e0: 41af 923d b00f 573d 89ad 3abd d774 d23d
000003f0: e1a9 153e 141e 283d 75bb 553d 446f 173e

MatMul_2 f4 [1, 32]
0.045395095 0.25037855 0.12150466 -0.28131455 -0.01240004 0.13558993 0.14407091 -0.33678594
-0.05853639 -0.008060581 0.24965651 -0.113833964 -0.32971525 0.24495263 0.023956345 0.13681915
-0.36778873 0.20888299 0.15712439 -0.3218039 0.074004784 -0.36741284 0.020863116 -0.3430251
0.020447893 0.02522223 0.04960119 -0.32203272 -0.048391644 -0.35405526 -0.044441856 -0.36211184
00000000: 35f0 393d 9e31 803e 6fd7 f83d 7608 90be
00000010: 8a29 4bbc 16d8 0a3e 5387 133e 356f acbe
00000020: dbc3 6fbd 8710 04bc f5a5 7f3e c821 e9bd
00000030: 70d0 a8be ddd4 7a3e 1940 c43c 521a 0c3e
00000040: ce4e bcbe 6ce5 553e 37e5 203e 7bc3 a4be
00000050: d28f 973d 891d bcbe 20e9 aa3c fca0 afbe
00000060: 5782 a73c da9e ce3c 9e2a 4b3d 79e1 a4be
00000070: 5136 46bd bb46 b5be aa08 36bd b966 b9be
